heino.method1.pth (torch, 8935 bytes, 2 tensors)

weight f4 [64, 3, 3, 3]
00000000: 96b6 b73d 78db 03be ab72 083e 006b 6dba
00000010: 4168 bebd cd68 123e ea3b c33d 2ea0 ae3d
00000020: bc99 4b3d a0c8 b4bc e627 20be ae66 e43d
00000030: 7c68 44be 3252 9d3d 3fd9 163e 8a57 cfbd
00000040: 73bd d2bd e765 31be b01a 5ebc a8c9 b63c
00000050: 1155 0b3e 85e5 3b3e a9e0 d1bd 4872 1b3d
00000060: a6a8 91bd 0bd1 0c3e d735 093e 682d 15be
00000070: f435 2a3d b98a 123e 9081 36bd a0a8 f93c
00000080: 84ac 623d 4075 373b 5884 373d fd93 023e
00000090: d651 87bd a0dc e6bb d6bd 10be d921 9fbd
000000a0: f0cc 243c 54b2 6e3d 401d 453d 272f 1d3e
000000b0: 728e e4bd 42f6 f0bd 6994 133e e6f5 e73d
000000c0: 211e 2cbe 5338 1d3e fbab 173e 3f46 1d3e
000000d0: dcbe 20bd 2c39 713d d009 79bc 41fa 1f3e
000000e0: 6053 32be e8a7 babc b2fb 03be f05f 103c
000000f0: 2c2b 02bd 33ec acbd 94ad 0ebd 301d 13bd
00000100: 86c6 c93d eac1 90bd 3d11 103e 7f61 053e
00000110: 100f 5bbc 4c41 21be 4a23 d73d e6d6 0bbe
00000120: 9e14 e1bd b3d4 2a3e 35ab 26be cab5 85bd
00000130: 4228 3dbe c827 97bc cb8f a2bd 3e55 b03d
00000140: 4e4e 39be 0494 3dbd 42e5 0abe ac75 6abd
00000150: bbbc 14be a488 073d ff20 0bbe c1f0 14be
00000160: a755 2a3e 56b8 41be eb0a 123e e04f 293c
00000170: 4861 69bd b46b 253d 76cb 01be 0431 583d
00000180: 5c90 3ebd f031 abbc a46b 84bd 227e 8f3d
00000190: 7c2f 6c3d 7280 fe3d 531d 1fbe e645 2dbe
000001a0: cb35 0f3e 08d7 76bd 2820 0dbe 70d9 30be
000001b0: 40ce 44be aaa3 b83d 083b 67bd a08e e2bc
000001c0: fc94 0dbe 5c6a 74bd a6fe 903d 0597 a0bd
000001d0: 0052 bdbb 7e7b d1bd 96ec 0cbe 9df9 323e
000001e0: a0cd f1bb 6895 d7bc 5a9d fe3d c834 8dbc
000001f0: 22be 8c3d 1aea 0ebe c0a8 18bd 4587 083e
00000200: 1768 023e bd9c 14be 571f 2e3e 0f35 163e
00000210: 8d38 3abe d31f 0d3e a37f dbbd eac2 80bd
00000220: c07c 213d f8d0 243d 34ae f1bd 9d62 3a3e
00000230: 3683 803d 4d2c 3d3e d645 10be d465 23bd
00000240: ce2f 37be c0fe 9cbc 47f2 123e 0060 06bb
00000250: 35be 95bd ab75 efbd 8fb0 9bbd 3a42 853d
00000260: 13d2 053e 28ea bcbd 6d9f 3a3e 5f32 1d3e
00000270: 3721 233e 9003 c33c ca56 b03d 80a3 1b3d
00000280: c0b2 14bd 8691 44be 4ac3 b83d 3cdb 10be
00000290: 388d 42be bae9 aa3d 9cb8 453d d713 113e
000002a0: 64af 17be 588d 953c 7a81 ec3d c579 093e
000002b0: 50f8 61bc 927d f4bd ea8e b13d 746d 733d
000002c0: 20bd fdbb 5daf 163e 4d92 a3bd 2030 c1bc
000002d0: b68e bd3d 7ed4 b73d 4248 b13d 0c11 2cbe
000002e0: 44df 06be 8955 2f3e 0020 a1b7 cc5f 263d
000002f0: dfbd 2abe 083c b7bc 0245 35be e0d2 1b3c
00000300: 3cc9 22be e155 e6bd f06f a83c 72b8 883d
00000310: 3042 463d 463f b7bd 548e 0cbd 8839 033d
00000320: cb9f d8bd 2160 253e de23 a03d 981d c83c
00000330: 7f79 30be 1bdd 8abd 8a18 cabd 40d3 8bbc
00000340: a81d 3a3d 6a67 9a3d a42e a7bd 6893 b63c
00000350: 4e52 8e3d 1a98 1ebe 4ade ec3d b639 e73d
00000360: 0a9a c03d 2b1b 24be 59cd 91bd 5cf9 1c3d
00000370: c674 25be d334 31be 009e f43c aa6e d63d
00000380: 40f3 75bc 76cb da3d 4494 31bd e35b b7bd
00000390: 822c b43d 86f2 c13d 63d5 e4bd 01e8 2b3e
000003a0: ec07 18be b30c 3dbe fed3 35be 00b1 ed3c
000003b0: 80e4 403b dc47 0bbe 43a5 28be 2284 fb3d
000003c0: 1f64 e8bd 64bc b7bd 06b3 9a3d f9f5 92bd
000003d0: c09d 113d 8f59 213e 494d 2b3e 6402 013d
000003e0: 38e0 4d3d 6796 3dbe c004 1abb f526 2c3e
000003f0: 5c04 e9bd 888a debd b5e1 433e b206 dc3d
0.089703724 -0.1287669 0.13324992 -0.0009056777 -0.092972286 0.14297791 0.09532912 0.085266456
0.04970716 -0.022068322 -0.1564022 0.11152397 -0.19180483 0.07681693 0.1473131 -0.101241186
-0.10290041 -0.17324029 -0.0135561675 0.022312954 0.13606669 0.18349274 -0.10247929 0.037950784
-0.07112245 0.13751619 0.13399445 -0.14568102 0.04155536 0.14310731 -0.044557154 0.030475914
0.055340305 0.002799347 0.044803947 0.12751766 -0.06607406 -0.0070453435 -0.14134917 -0.07770128
0.0100586265 0.058275536 0.048123598 0.15350018 -0.11159982 -0.1176572 0.14412083 0.11326198
-0.16808368 0.15353517 0.14811699 0.15358828 -0.039244518 0.058892414 -0.015200093 0.15622808
-0.17414618 -0.022785142 -0.12888983 0.008811936 -0.031779453 -0.08443489 -0.034833506 -0.035916507
0.098523185 -0.07068236 0.14069076 0.13025473 -0.01337029 -0.15747565 0.10504778 -0.13656196
-0.109902605 0.16682701 -0.16276248 -0.06528814 -0.18472388 -0.018451586 -0.079375826 0.08610009
-0.18096277 -0.046283737 -0.13564017 -0.057241127 -0.1452512 0.033089295 -0.13586806 -0.14544965
0.16634236 -0.18917975 0.14261977 0.010333985 -0.05697754 0.040385917 -0.1267527 0.05278112
-0.04652439 -0.020897835 -0.06465843 0.0700648 0.057662472 0.12426843 -0.1553853 -0.16921195
0.13985364 -0.060263664 -0.13781798 -0.17270446 -0.19219303 0.090155914 -0.05645278 -0.0276559
-0.13826364 -0.059671745 0.0707982 -0.07841305 -0.0057775974 -0.102286324 -0.13762125 0.17478032
-0.0073792487 -0.02631636 0.12432356 -0.017237082 0.068722025 -0.1395649 -0.037270308 0.13332851
0.1273502 -0.14512916 0.17004143 0.14668678 -0.18185635 0.13781671 -0.10717704 -0.06287177
0.03942561 0.04023835 -0.11800805 0.1820168 0.062750265 0.1847393 -0.1408914 -0.039892033
-0.1788933 -0.019164443 0.14350234 -0.0020503998 -0.0731167 -0.11692365 -0.07602035 0.06506772
0.13068418 -0.09224349 0.18224879 0.15351246 0.15930639 0.02380541 0.08610304 0.037997723
-0.03630328 -0.19196138 0.090216234 -0.14146131 -0.18999183 0.08345361 0.04827176 0.14167725
-0.14813 0.018255875 0.11548133 0.13425358 -0.0137921125 -0.11938013 0.08669837 0.059430555
-0.0077434927 0.14715333 -0.07986889 -0.023582518 0.092557356 0.089760765 0.0865636 -0.16803378
-0.13171107 0.17122473 -1.9207597e-05 0.040618703 -0.16673993 -0.022367492 -0.17702106 0.009510726
-0.15897077 -0.11246849 0.020561188 0.06675805 0.048402965 -0.08947615 -0.034315422 0.032037288
-0.10577353 0.16149952 0.07819341 0.024428174 -0.17233847 -0.06780454 -0.09867962 -0.017068505
0.04543844 0.07539256 -0.08163193 0.022287086 0.06949292 -0.1548771 0.11565836 0.11290304
0.094043806 -0.16025989 -0.07119245 0.038323745 -0.16157827 -0.17305307 0.029860497 0.10470326
-0.015011609 0.10683338 -0.043354288 -0.08953073 0.08797552 0.09470086 -0.11173513 0.16787721
-0.14846772 -0.18461876 -0.1775665 0.029015064 0.0029433072 -0.13601631 -0.16469292 0.12281062
-0.113472216 -0.089714795 0.07553677 -0.07175822 0.035550833 0.1575682 0.167287 0.03149642
0.05026266 -0.18514405 -0.0023501366 0.16811736 -0.113777846 -0.108662665 0.19129069 0.107434645

bias f4 [64]
00000000: b985 1dbe 0a38 d83d b88e 9a3c 6aed c53d
00000010: c697 b23d 106e 3d3d 0aef c63d 2cca 81bd
00000020: 6233 f23d da28 85bd dae6 e83d 8480 09bd
00000030: ed5d 3f3e 79c2 2b3e cc27 51bd 2c64 5ebd
00000040: 7661 c6bd c828 26bd 70ae 74bc c03c 4c3b
00000050: 4eec 04be 9a74 fb3d 6e81 f93d cde6 423e
00000060: 60cd 133d 5319 173e a0f7 18bc f02b 0e3d
00000070: 89d5 9fbd 38c1 30be 31b4 36be 834e 2d3e
00000080: bf11 213e c763 333e 1700 3a3e 1955 293e
00000090: 584d 143d 32ac a03d b0c9 edbc 95b2 063e
000000a0: 5388 173e 69b5 9abd 9a24 cabd 5a59 fe3d
000000b0: 2b4e 273e c2b4 9c3d 84b7 42bd c344 3cbe
000000c0: dd0e cbbd c6aa f13d 4656 42be 72df e93d
000000d0: 040c 233d 1e38 2ebe 8f59 11be 5976 3abe
000000e0: 9882 15bd 60e5 1ebd 5829 683d 081f 5ebd
000000f0: 538d 1dbe 6868 cebd 0423 74bd 7892 9e3c
-0.15383042 0.105575636 0.018866882 0.09664424 0.08720355 0.046247542 0.09713562 -0.06337389
0.11826207 -0.065019324 0.113721564 -0.033569828 0.18688174 0.16773404 -0.051063344 -0.05429475
-0.09686558 -0.040566236 -0.014934167 0.003116414 -0.12980768 0.12278099 0.1218289 0.19033356
0.036084533 0.14755754 -0.009336382 0.03470987 -0.078044005 -0.17261207 -0.17842175 0.16924481
0.15729426 0.17518531 0.18164097 0.16536368 0.036206573 0.07845344 -0.029026836 0.13154061
0.14798097 -0.075541325 -0.098702624 0.12419386 0.16338412 0.07651664 -0.047538295 -0.18385606
-0.09914944 0.118001506 -0.18978223 0.11419572 0.03980638 -0.17013595 -0.1419432 -0.18209209
-0.036501497 -0.038792968 0.056680053 -0.054228812 -0.15385942 -0.10078508 -0.059603706 0.019356951
