heino_0.pth (torch, 587399 bytes, 10 tensors)

weight f4 [32, 3, 5, 5]
-0.11196641 0.10927802 -0.004356734 -0.11379049 0.08496998 -0.087145455 -0.053599577 -0.053044338
0.066160195 -0.019024469 -0.034895472 0.06586324 0.0011815842 0.0638079 -0.11806887 0.06412655
-0.054109883 -0.09425729 -0.03881476 0.0019939363 -0.08865908 -0.079082996 0.012477983 -0.04168553
-0.057768654 0.008999067 0.10813571 -0.07883187 -0.10081705 0.037999358 0.033644598 -0.09801782
-0.03246529 -0.07109221 0.09542345 -0.011205765 -0.11213855 0.037702803 0.017791508 -0.045163263
-0.036517538 -0.0007410323 0.10459203 -0.09196273 -0.040174507 0.0073195044 -0.090933025 0.07588131
0.031727005 0.111930326 -0.04775026 -0.08268198 -0.05873081 0.11360212 -0.043465886 -0.104494885
-0.045647588 0.007106724 0.08364835 0.096615635 -0.01658367 -0.048364077 -0.008857456 -0.0056476756
0.095801026 -0.051284984 -0.086547524 0.011845237 0.108591914 0.03490063 0.065840185 0.11239233
-0.09395137 0.098120496 0.045634348 0.04731516 0.055556938 0.046401657 -0.026199233 -0.051262274
-0.089469835 0.00499049 -0.030994436 -0.044724207 -0.077613525 -0.042332985 0.06653618 -0.096401684
0.025657983 0.10147005 0.11702543 -0.048538957 0.0925436 0.07104586 -0.023977185 0.06570027
0.06472092 -0.10940168 0.0041595944 -0.0036474913 0.06912007 0.055981655 0.012722369 0.011153041
-0.04214978 -0.0039152717 0.030797094 -0.013205022 -0.06104076 0.09080812 0.054607563 -0.06818966
0.09096003 -0.032538142 0.10333504 -0.06142942 0.10317486 -0.100853786 -0.011748305 -0.048175387
0.015007597 -0.059866764 -0.030691123 0.1136416 -0.103835106 0.037507754 0.049336273 -0.014776561
0.0030708625 -0.02701585 -0.07122505 0.08506671 0.0018583238 0.034073036 0.0364179 -0.11187128
-0.077507846 -0.018730124 -0.059111543 -0.025019757 0.044124242 -0.007712744 0.033629406 -0.12256205
0.058238536 -0.033834606 -0.0660581 -0.057125095 -0.11355414 0.030540798 0.07280559 -0.10224307
0.07427118 0.04971123 0.06729111 0.07837604 0.009214821 -0.05586268 0.038773116 0.076454565
0.021206368 -0.051980313 0.0566279 -0.059251085 0.07165204 -0.059040066 0.07124141 -0.009986377
0.0040698284 0.079907626 -0.05454463 -0.09228481 0.061493788 -0.027808376 0.09457291 -0.10103468
0.09920648 0.059869677 -0.10382491 0.057847906 0.009392558 -0.08718785 -0.019771088 -0.007874642
-0.116461456 0.07824836 -0.09490352 -0.05023268 0.009050103 -0.078395054 0.09038987 -0.0016590077
0.10668811 -0.08565349 0.04747214 -0.033225298 -0.0795761 -0.06433576 -0.040738665 -5.9741433e-05
0.035030827 0.012334456 0.09867913 -0.011996266 0.110552184 0.056717675 0.008101063 -0.0619858
0.078526035 -0.07504335 0.06200763 0.11441419 0.067525454 0.118032984 -0.020012207 0.06763649
-0.05298364 0.04965643 0.07535715 0.046044093 0.09821654 -0.011129324 0.085730575 0.08899861
0.07834358 0.008411725 -0.102147155 -0.052327607 -0.009869873 -0.02957616 0.077366926 0.019021371
0.09475437 0.08551285 0.03128758 -0.06478731 -0.012048171 -0.05085909 -0.020464562 0.112037286
0.12699091 -0.097784355 0.050523765 -0.088540465 0.04291265 0.11953867 0.1184807 0.08481993
0.014966875 0.07574335 -0.028962497 -0.055465493 0.06981823 -0.03827151 0.00095661 0.018389903
00000000: a54e e5bd 28cd df3d efc2 8ebb fd0a e9bd
00000010: be04 ae3d 5179 b2bd 3b8b 5bbd 0545 59bd
00000020: ff7e 873d 34d9 9bbc 8eee 0ebd 4ee3 863d
00000030: 63df 9a3a b7ad 823d 17ce f1bd c854 833d
00000040: 53a2 5dbd f709 c1bd 3afc 1ebd b3ac 023b
00000050: e492 b5bd 44f6 a1bd 7470 4c3c 72be 2abd
00000060: d39e 6cbd d370 133c 4176 dd3d 9a72 a1bd
00000070: 2b79 cebd 37a5 1b3d ebce 093d 91bd c8bd
00000080: 53fa 04bd cb98 91bd 5f6d c33d 6398 37bc
00000090: e5a8 e5bd 416e 1a3d 7fbf 913c 1dfd 38bd
000000a0: 6a93 15bd d641 42ba 5934 d63d f556 bcbd
000000b0: 068e 24bd 74d8 ef3b 183b babd a967 9b3d
000000c0: 2df4 013d ba3b e53d c795 43bd 2c55 a9bd
000000d0: b88f 70bd 3aa8 e83d 4909 32bd 6a01 d6bd
000000e0: f7f8 3abd 86df e83b d34f ab3d 6bde c53d
000000f0: 7ada 87bc 6919 46bd dd1e 11bc 2310 b9bb
00000100: 5433 c43d 3410 52bd d43f b1bd 8612 423c
00000110: 7065 de3d f7f3 0e3d 38d7 863d f32d e63d
00000120: 9369 c0bd 66f3 c83d 15eb 3a3d 8bcd 413d
00000130: ac8f 633d aa0f 3e3d c69f d6bc 64f8 51bd
00000140: f63b b7bd 4487 a33b 0be8 fdbc bb30 37bd
00000150: d7f3 9ebd 5a65 2dbd 1f44 883d 3f6e c5bd
00000160: b130 d23c 88cf cf3d 07ab ef3d c9d0 46bd
00000170: 8087 bd3d 7e80 913d cd6b c4bc dd8d 863d
00000180: 678c 843d fd0d e0bd 354d 883b c00a 6fbb
00000190: d38e 8d3d 054d 653d 7c71 503c 3fbb 363c
000001a0: 3fa5 2cbd ae4b 80bb 304a fc3c e059 58bc
000001b0: e005 7abd 9cf9 b93d 2eac 5f3d 05a7 8bbd
000001c0: 4149 ba3d b746 05bd 52a1 d33d 6a9d 7bbd
000001d0: 574d d33d 6e8c cebd f67b 40bc 8e53 45bd
000001e0: 6de2 753c da36 75bd f36b fbbc edbc e83d
000001f0: 80a7 d4bd bba1 193d d514 4a3d 6419 72bc
00000200: 8640 493b 5850 ddbc 70de 91bd 7537 ae3d
00000210: 0093 f33a 2b90 0b3d f02a 153d c51c e5bd
00000220: 6fbc 9ebd eb6f 99bc f21e 72bd 3cf6 ccbc
00000230: 9fbb 343d 30bb fcbb fdbe 093d d001 fbbd
00000240: 888b 6e3d 2896 0abd 7849 87bd 01fc 69bd
00000250: 138f e8bd b230 fa3c 191b 953d d164 d1bd
00000260: 7d1b 983d 019e 4b3d eccf 893d 9e83 a03d
00000270: c3f9 163c 44d0 64bd 8fd0 1e3d 3694 9c3d
00000280: fab8 ad3c 4fe9 54bd a8f2 673d 44b1 72bd
00000290: 4ebe 923d ffd3 71bd 04e7 913d e79d 23bc
000002a0: 325c 853b 9ca6 a33d 316a 5fbd d2ff bcbd
000002b0: e9e0 7b3d 64ce e3bc 71af c13d 45eb cebd
000002c0: c42c cb3d e839 753d 28a2 d4bd edf1 6c3d
000002d0: 3ee3 193c 8b8f b2bd faf6 a1bc a404 01bc
000002e0: 5883 eebd ad40 a03d c75c c2bd c8c0 4dbd
000002f0: e246 143c 968d a0bd 531e b93d 1073 d9ba
00000300: 4c7f da3d 196b afbd 2672 423d 4017 08bd
00000310: cbf8 a2bd 78c2 83bd 96dd 26bd e092 7ab8
00000320: 7c7c 0f3d 7516 4a3c 4918 ca3d fd8b 44bc
00000330: 2f69 e23d cb50 683d 52ba 043c d2e4 7dbd
00000340: 42d2 a03d 54b0 99bd b6fb 7d3d fd51 ea3d
00000350: c94a 8a3d 47bb f13d a4f0 a3bc 0085 8a3d
00000360: 6005 59bd 8a64 4b3d d954 9a3d bb98 3c3d
00000370: c125 c93d c557 36bc 8393 af3d e744 b63d
00000380: 9972 a03d 55d1 093c 8732 d1bd 7955 56bd
00000390: 3fb5 21bc b449 f2bc 8d72 9e3d b5d2 9b3c
000003a0: 940e c23d 5c21 af3d 6827 003d 36af 84bd
000003b0: b165 45bc 9f51 50bd 4ca5 a7bc ce73 e53d
000003c0: e809 023e 2a43 c8bd 02f2 4e3d b454 b5bd
000003d0: 2dc5 2f3d b1d0 f43d 02a6 f23d 12b6 ad3d
000003e0: a037 753c 541f 9b3d c242 edbc c92f 63bd
000003f0: dcfc 8e3d 96c2 1cbd 03c5 7a3a 6ca6 963c

bias f4 [32]
0.08348524 0.13094446 -0.08171963 0.054418877 0.043649357 0.061161365 -0.09001852 -0.054421872
-0.025334302 -0.048676815 -0.12283104 -0.07187021 -0.097964875 -0.025260506 0.05842056 0.039919056
0.027242454 0.1194439 -0.012807397 0.102931336 -0.06974639 0.10375522 0.0053763767 0.06560934
-0.037847154 0.021030596 0.14218259 -0.040947407 -0.07836191 0.038875457 0.040336553 0.007743587
00000000: 4ffa aa3d 4e16 063e 9f5c a7bd 54e6 5e3d
00000010: abc9 323d 5784 7a3d a15b b8bd 78e9 5ebd
00000020: e289 cfbc 5761 47bd d78e fbbd b030 93bd
00000030: cfa1 c8bd 1fef cebc 664a 6f3d 2a82 233d
00000040: 912b df3c 019f f43d 1ed6 51bc aacd d23d
00000050: 32d7 8ebd 9e7d d43d 512c b03b 315e 863d
00000060: 9e05 1bbd 5b48 ac3c 5098 113e 78b8 27bd
00000070: 367c a0bd df3b 1f3d f137 253d eabd fd3b

weight f4 [32, 32, 5, 5]
-0.015554596 -0.00027068952 0.014607744 0.03475992 0.0039324383 0.005779071 0.032247823 -0.017256804
-0.022187382 0.0017190769 -0.02981799 0.02837662 0.020731512 0.035465773 0.02339492 0.02863635
0.004478765 0.039895073 -0.018082894 0.04038382 0.017811108 0.041353896 0.035675377 0.038379826
0.009389019 -0.026589846 0.011738893 -0.014009283 0.023116918 -0.014194321 -0.010369047 0.031576935
-0.023748066 0.026018191 0.020124821 -0.019298337 -0.023346292 0.014378803 0.0131178135 -0.010080317
0.014325511 0.020243945 -0.015893534 -0.022622887 -0.017867826 -0.004233345 -0.0105395485 0.018844696
-0.028269123 -0.013540325 0.011599009 -0.0019012158 0.023193505 -0.0005983358 0.0013362514 0.00012724809
0.024100643 0.03384713 0.032996017 0.004196023 0.009679557 -0.0051113847 0.018621895 -0.02328043
0.033418648 0.02934469 0.003416244 -0.024563152 -0.008024152 0.012572338 -0.027485669 -0.007997507
0.012668081 0.033556625 -0.00080666726 0.004819417 -0.00021486076 0.02289402 -0.00039846264 0.014412138
-0.019875856 0.022177296 -0.038582604 0.029452804 0.011808338 -0.003068092 0.023926167 -0.018472949
-0.015642792 0.020309435 0.006962573 -0.03243716 0.0032325534 0.02718284 -0.038631413 -0.021438248
-0.0056458763 -0.0013232463 -0.03547991 -0.023375342 -0.0039596893 -0.0010661184 -0.02826649 0.017062763
0.033683434 0.023549002 0.017616056 -0.012071743 -0.0024707345 -0.004812535 0.018279351 -0.038161047
0.016882153 -0.015309797 -0.03975045 0.007232177 0.0053331098 0.025943108 -0.0056965495 0.007462031
-0.0039414302 -0.0132879205 -0.023300976 -0.0031706616 -0.039139185 0.0050342362 0.013907844 -0.036392458
-0.011348687 0.016110899 0.028849972 0.019258859 -0.027347054 0.019017931 -0.006590814 0.033253532
-0.03083796 0.00510724 0.009893568 0.027690757 -0.016975775 0.031699196 -0.01175696 0.0027989068
-0.025244862 -0.0013121197 -0.0037958568 -0.03182777 -0.020760933 -0.02445222 0.013803881 0.025417928
-0.019292323 0.020330561 0.022166312 -0.007317646 -0.008392255 -0.016002068 0.031782754 -0.0025044947
-0.001981854 0.023031585 -0.027471865 -0.027272973 0.036154144 0.014934003 0.032682814 -0.022686776
0.026617536 0.008548148 0.015768109 0.013629931 -0.020435823 0.0015035592 0.0017445892 0.02634143
0.04245585 0.039912317 0.030701727 0.009440902 0.0039662374 -0.008058318 -0.01980288 -0.0044377362
-0.03129598 -0.0151174255 0.027426923 0.0032993795 0.0029769493 0.013528944 0.012103757 0.008281672
0.03199929 -0.010371879 -0.02216928 0.028735844 -0.01799042 -0.004066647 0.035570234 0.024440745
0.032823186 0.02901034 -0.019052053 -0.020330079 0.021604542 -0.021928607 -0.0034123624 0.01110894
-0.021409407 0.01445484 0.023118911 -0.010012614 -0.00022924156 -0.0059038405 0.029215466 0.010371463
-0.020332534 -0.01695153 0.007363887 0.006953625 0.00031400187 -0.011395579 0.036366854 0.019772558
-0.004579757 -0.030479755 0.019789495 -0.021437721 -0.0049219867 0.004755027 0.0051498516 0.013636717
0.030469008 0.007926115 0.03154515 0.0017320057 0.030587558 0.016740767 -0.018954635 -0.0015882086
0.006182062 -0.011586554 0.0376168 -0.019549787 0.02346585 0.006428861 0.01728436 0.035921317
0.01957518 -0.020982604 -0.01606827 0.038114842 0.007839029 0.0041149887 -0.020273762 0.027926536
00000000: b4d8 7ebc 55eb 8db9 5255 6f3c 6b60 0e3d
00000010: afdb 803b 5c5e bd3b 4b16 043d 245e 8dbc
00000020: 50c2 b5bc a652 e13a db44 f4bc 1676 e83c
00000030: 22d5 a93c 8f44 113d b4a6 bf3c c796 ea3c
00000040: 9bc2 923b 0469 233d 9422 94bc 8169 253d
00000050: 9ae8 913c b462 293d 5820 123d 2a34 1d3d
00000060: 66d4 193c f3d2 d9bc 7c54 403c 3187 65bc
00000070: b15f bd3c 4c8f 68bc efe2 29bc d156 013d
00000080: 4e8b c2bc 1a24 d53c cfdc a43c 8c17 9ebc
00000090: b940 bfbc 1295 6b3c 19ec 563c ea27 25bc
000000a0: 8cb5 6a3c a1d6 a53c 2833 82bc a253 b9bc
000000b0: 8c5f 92bc dfb7 8abb 12ae 2cbc 3160 9a3c
000000c0: a694 e7bc 3dd8 5dbc c509 3e3c 3732 f9ba
000000d0: 4e00 be3c a3d9 1cba 2825 af3a e66d 0539
000000e0: b66e c53c 4aa3 0a3d d526 073d cb7e 893b
000000f0: 0197 1e3c 677d a7bb f28c 983c 9ab6 bebc
00000100: fee1 083d 4664 f03c 10e3 5f3b aa38 c9bc
00000110: bc77 03bc 35fc 4d3c a029 e1bc fa07 03bc
00000120: c88d 4f3c ac72 093d 8676 53ba 33ec 9d3b
00000130: 3f4c 61b9 3d8c bb3c c0e8 d0b9 e320 6c3c
00000140: b1d2 a2bc 29ad b53c cb08 1ebd 0247 f13c
00000150: c277 413c 0b12 49bb cf00 c43c 9554 97bc
00000160: 5025 80bc f95f a63c 4c26 e43b d4dc 04bd
00000170: 3fd9 533b 8cae de3c f93b 1ebd 449f afbc
00000180: 0b01 b9bb c770 adba 6253 11bd a57d bfbc
00000190: 48c0 81bb ffbc 8bba 208f e7bc 35c7 8b3c
000001a0: a4f7 093d d6e9 c03c 8c4f 903c 8fc8 45bc
000001b0: 0cec 21bb 78b2 9dbb 94be 953c c24e 1cbd
000001c0: 714c 8a3c f1d5 7abc 5ed1 22bd e6fb ec3b
000001d0: 5ec1 ae3b a486 d43c 1faa babb 0e84 f43b
000001e0: 1d27 81bb 94b5 59bc b0e1 bebc e0ca 4fbb
000001f0: 6950 20bd 3cf6 a43b badd 633c 4210 15bd
00000200: d8ef 39bc 01fb 833c c756 ec3c c1c4 9d3c
00000210: ee06 e0bc 7ecb 9b3c c1f7 d7bb db34 083d
00000220: e49f fcbc a25a a73b a218 223c bad7 e23c
00000230: c810 8bbc 04d7 013d 44a0 40bc dd6d 373b
00000240: 50ce cebc 6efb abba e9c3 78bb d65d 02bd
00000250: d512 aabc 0650 c8bc ac29 623c 4239 d03c
00000260: ef0a 9ebc 478c a63c 2096 b53c ddc8 efbb
00000270: ab7f 09bc c516 83bc a22e 023d 7322 24bb
00000280: fee1 01bb bcac bc3c ad0c e1bc 926b dfbc
00000290: 5e16 143d c0ad 743c 6ade 053d 9ed9 b9bc
000002a0: 050d da3c 880d 0c3c 1f2c 813c 1350 5f3c
000002b0: 0769 a7bc 1313 c53a b3aa e43a fcc9 d73c
000002c0: 2fe6 2d3d 197b 233d 3082 fb3c 03ae 1a3c
000002d0: 36f7 813b 0907 04bc a639 a2bc 6e6a 91bb
000002e0: 3730 00bd 14af 77bc 6dae e03c 673a 583b
000002f0: ec18 433b 81a8 5d3c d64e 463c daaf 073c
00000300: b011 033d d0ee 29bc 5a9c b5bc 6f67 eb3c
00000310: a560 93bc 8241 85bb 18b2 113d f537 c83c
00000320: 9b71 063d 18a7 ed3c 0d13 9cbc 448b a6bc
00000330: 02fc b03c 9fa3 b3bc f1a1 5fbb 4502 363c
00000340: c862 afbc fed3 6c3c df63 bd3c f20b 24bc
00000350: 9060 70b9 0175 c1bb 4655 ef3c 12ed 293c
00000360: 6a90 a6bc efdd 8abc c34c f13b 3cdb e33b
00000370: 9ea0 a439 86b4 3abc 69f5 143d 0ffa a13c
00000380: c911 96bb aeb0 f9bc 941d a23c 299e afbc
00000390: 9e48 a1bb 0fd0 9b3b 16c0 a83b 896c 5f3c
000003a0: 249a f93c 89dc 013c 7d35 013d 7804 e33a
000003b0: c292 fa3c ef23 893c c046 9bbc 702b d0ba
000003c0: e592 ca3b 88d5 3dbc 1314 1a3d e026 a0bc
000003d0: 743b c03c 32a9 d23b ee97 8d3c 3b22 133d
000003e0: 215c a03c b6e3 abbc 9ba1 83bc 4f1e 1c3d
000003f0: 456f 003c 07d7 863b 2915 a6bc 31c6 e43c

bias f4 [32]
-0.029409917 0.0034258475 0.05231654 0.0116427895 -0.024664998 -0.008571128 0.019083712 0.02986762
0.018759994 -0.02564061 -0.0012464307 0.018339295 -0.043766443 0.02442359 -0.003427476 -0.007127791
0.0010303386 0.04121742 0.05831468 -0.027669545 0.046515204 0.015999801 -0.011054711 0.003567531
0.03333792 -0.042557254 0.0677624 0.037554454 0.03931516 -0.027771957 0.006436077 0.005544593
00000000: 11ed f0bc 2f84 603b de49 563d 66c1 3e3c
00000010: 400e cabc eb6d 0cbc 7255 9c3c f0ac f43c
00000020: 8fae 993c 420c d2bc 465f a3ba 4a3c 963c
00000030: 7144 33bd fb13 c83c 819f 60bb 3f90 e9bb
00000040: 6d0c 873a 99d3 283d 60db 6e3d 3eab e2bc
00000050: ba86 3e3d 0412 833c d21e 35bc 3dcd 693b
00000060: 588d 083d 8450 2ebd 03c7 8a3d b3d2 193d
00000070: ef08 213d 0482 e3bc bae5 d23b 6baf b53b

weight f4 [64, 32, 5, 5]
0.026603399 -0.02566547 -0.023609964 -0.007963431 0.017816138 0.027832033 0.032209232 -0.030695762
0.023567185 -0.002024277 -0.024841068 0.020573508 0.017537385 -0.033346143 -0.017461063 0.016329603
-0.0118133975 -0.0060034064 0.026856467 0.01733864 0.018006936 -0.029213838 0.020365927 0.012229374
0.030022489 0.005730848 0.0058367127 0.013442058 0.012575068 -0.021609604 0.031464808 -0.015400794
-0.0343368 -0.027658023 -0.013349615 -0.022670535 0.023717621 -0.0025877093 0.004960952 -0.029470619
0.0071626445 -0.0060759303 -0.026337191 0.007973325 -0.008303912 -0.020283882 -0.01080257 -0.037206084
-0.029834026 -0.034003697 -0.021293705 0.024094144 0.008866055 -0.021826549 0.021351365 0.0066060433
0.0098372875 0.028046452 -0.032059036 0.025709894 0.035244416 -0.008453605 0.016887898 0.014783076
-0.033015687 0.001965672 0.015580688 0.0027759112 0.01243671 -0.012013267 0.024278801 0.010742211
-0.01598997 -0.020981459 -0.00394095 -0.028290424 0.029523516 0.03018992 0.0046978863 0.03313199
-0.027468055 0.023307282 0.009250092 -0.00952052 0.006391191 0.0010524429 -0.029152574 -0.019523015
-0.019489713 -0.02330795 0.031665653 0.029622054 0.007103764 0.016197752 -0.017195677 0.012676368
-0.014848279 0.020079238 0.032613534 0.013884817 0.014426521 -0.00570741 0.0345336 -0.030272102
-0.017115511 -0.008483161 0.030588314 -0.027365666 -0.015043051 0.001188755 0.01133685 -0.028564991
-0.021672344 -0.017464219 0.012061386 -0.010770668 0.0067483005 -0.026895558 -0.009116829 0.014266671
0.028366812 0.00088683394 0.011818727 0.014799179 0.033152193 0.025443869 0.022467123 -0.014927378
0.02582352 -0.016587669 -0.025466114 0.017427603 -0.012833001 -0.013480143 0.028891817 0.01544697
0.02284773 0.0034875267 -0.008528268 -0.011027553 0.025408296 -0.015378599 -0.0312513 -0.0038389384
0.0023273756 0.0078702755 -0.019462083 -0.008337208 -0.030481294 -0.009339097 -0.002483822 0.01275777
-0.0018119084 -0.008133606 0.0096492395 -0.03053604 -0.007824874 0.01891688 0.03245218 -0.013096511
0.007199639 0.011688244 -0.010944512 0.0259977 -0.014748643 -0.02075873 0.020969596 -0.007642493
-0.0002806622 -0.020177199 0.006531426 -0.028485784 0.0073682214 0.028941518 0.023991754 -0.028462643
-0.0046551027 -0.03539509 0.010960584 0.01374565 0.030016836 0.007319735 -0.03404898 0.0046221605
-0.0037162292 0.028816707 -0.028879615 -0.021621464 -0.005536546 0.018003255 0.0062020277 0.031218272
-0.03816155 -0.02951253 0.0033574507 -0.0016993574 0.011484617 -0.013997673 -0.020264389 -0.0031721296
0.019103302 0.017220128 -0.019816237 0.037348546 -0.022406233 -0.012620501 -0.016550627 -0.016722707
0.03137337 0.015132172 -0.002247255 -0.01772972 0.0038305293 0.028427698 0.01877954 -0.009326213
-0.00019986855 -0.012407305 0.010230245 -0.012682731 -0.025371874 0.029037626 0.018206118 -0.042118106
0.011096923 -0.0012750827 0.0034581737 -0.032362904 -0.012404636 0.0116498275 0.024306709 -0.031511314
-0.0065173367 0.008276257 0.0026605772 -0.005782892 -0.034705233 0.014400956 -0.025889212 0.010626436
0.017050456 0.022979487 -0.023715822 -0.037055537 -0.025448823 -0.0031691256 -0.0002518283 0.011623156
0.026294718 0.025508 -0.022521405 -0.022135647 -0.027293867 -0.032125413 -0.029775346 -0.01726425
00000000: 5fef d93c 6440 d2bc af69 c1bc 0d79 02bc
00000010: 26f3 913c 0100 e43c d4ed 033d ae75 fbbc
00000020: f80f c13c bca9 04bb 7f7f cbbc c689 a83c
00000030: 90aa 8f3c f795 08bd 810a 8fbc a9c5 853c
00000040: fb8c 41bc 39b8 c4bb 1802 dc3c c309 8e3c
00000050: 4883 933c dc51 efbc 72d6 a63c b65d 483c
00000060: b9f1 f53c d6c9 bb3b e541 bf3b 143c 5c3c
00000070: a807 4e3c a006 b1bc 3ee1 003d 9d53 7cbc
00000080: bfa4 0cbd 1493 e2bc 58b8 5abc 8fb7 b9bc
00000090: 754b c23c 8f96 29bb 7b8f a23b 5e6c f1bc
000000a0: 9eb4 ea3b 9918 c7bb 18c1 d7bc 8da2 023c
000000b0: 220d 08bc 622a a6bc 43fd 30bc 6865 18bd
000000c0: 7d66 f4bc 7647 0bbd 2370 aebc 1561 c53c
000000d0: ee42 113c 97cd b2bc 0fe9 ae3c 8277 d83b
000000e0: 932c 213c acc1 e53c 5650 03bd 8e9d d23c
000000f0: 735c 103d fd80 0abc 7d58 8a3c b734 723c
00000100: 753b 07bd 81d2 003b 2446 7f3c 10ec 353b
00000110: 58c3 4b3c 4bd3 44bc 56e4 c63c 1900 303c
00000120: 66fd 82bc 4fe1 abbc 1623 81bb 52c1 e7bc
00000130: 4ddb f13c da50 f73c baf0 993b 69b5 073d
00000140: b004 e1bc eaee be3c b38d 173c f5fb 1bbc
00000150: 326d d13b 20f2 893a 61d1 eebc bbee 9fbc
00000160: e4a8 9fbc 50f0 bebc d8b3 013d f3a9 f23c
00000170: b1c6 e83b 26b1 843c f3dd 8cbc 8ab0 4f3c
00000180: 3246 73bc 377d a43c c595 053d 257d 633c
00000190: 375d 6c3c 3a05 bbbb 1b73 0d3d 33fd f7bc
000001a0: d435 8cbc f5fc 0abc 5894 fa3c f62d e0bc
000001b0: 2177 76bc 00d0 9b3a 32be 393c 2101 eabc
000001c0: 338a b1bc 1f11 8fbc 1f9d 453c 7577 30bc
000001d0: d920 dd3b 1354 dcbc c15e 15bc c1be 693c
000001e0: 8461 e83c 6b7a 683a 55a3 413c 4178 723c
000001f0: 98ca 073d a96f d03c f90c b83c f691 74bc
00000200: d98b d33c dde2 87bc 509e d0bc 55c4 8e3c
00000210: 8241 52bc d1db 5cbc 88ae ec3c 4a15 7d3c
00000220: 2a2b bb3c fd8e 643b 26ba 0bbc e9ac 34bc
00000230: 0f25 d03c 85f6 7bbc 5d01 00bd b396 7bbb
00000240: e286 183b 54f2 003c f26e 9fbc c998 08bc
00000250: e8b3 f9bc 0303 19bc 9ec7 22bb f705 513c
00000260: 8f7d edba d142 05bc d817 1e3c b826 fabc
00000270: e633 00bc 93f7 9a3c 94ec 043d c092 56bc
00000280: f3ea eb3b 0c80 3f3c 9c50 33bc 21f9 d43c
00000290: 4ba4 71bc 360e aabc 6ec8 ab3c e16d fabb
000002a0: d825 93b9 a74a a5bc 9305 d63b 055b e9bc
000002b0: 1f71 f13b c316 ed3c 5b8a c43c 7d2a e9bc
000002c0: d589 98bb 71fa 10bd 0594 333c 6f35 613c
000002d0: dee5 f53c 63da ef3b f176 0bbd 7e75 973b
000002e0: fb8b 73bb 0411 ec3c f194 ecbc 7f1f b1bc
000002f0: ea6b b5bb 907b 933c 613a cb3b 76bd ff3c
00000300: 494f 1cbd 43c4 f1bc ad08 5c3b f9bc deba
00000310: fa29 3c3c 7f56 65bc 8101 a6bc 81e3 4fbb
00000320: 877e 9c3c 3a11 8d3c a955 a2bc cafa 183d
00000330: 478d b7bc 38c6 4ebc 2e95 87bc 0ffe 88bc
00000340: 5d81 003d eeec 773c af46 13bb eb3d 91bc
00000350: 9e09 7b3b 34e1 e83c 8dd7 993c f9cc 18bc
00000360: ce93 51b9 0248 4bbc c29c 273c 3bcb 4fbc
00000370: add8 cfbc 51e0 ed3c ff24 953c 0984 2cbd
00000380: decf 353c ad20 a7ba 87a2 623b f78e 04bd
00000390: d03c 4bbc ebde 3e3c dd1e c73c 0212 01bd
000003a0: 628f d5bb 2399 073c 145d 2e3b 6a7e bdbb
000003b0: 1327 0ebd fdf1 6b3c 9d15 d4bc 811a 2e3c
000003c0: 66ad 8b3c 7a3f bc3c af47 c2bc 8cc7 17bd
000003d0: 0d7a d0bc 1bb1 4fbb d307 84b9 0d6f 3e3c
000003e0: 0568 d73c 27f6 d03c cf7e b8bc d155 b5bc
000003f0: 6397 dfbc f095 03bd 6deb f3bc c26d 8dbc

bias f4 [64]
-0.030884707 -0.013809924 0.022783017 0.033146545 0.027531948 -0.025758402 -0.005805048 -0.0089341635
-0.009565372 0.014395145 0.005122069 -0.009403036 0.008022419 -0.011241315 -0.009141577 -0.025166394
0.0081294635 -0.040439367 0.0015590162 0.036472525 0.006099092 0.039297383 0.030965881 0.00531188
0.04354861 -0.009574823 0.016995922 -0.026262121 0.027136657 0.0132872285 0.020826485 0.029092899
-0.02708001 0.03125589 -0.029878547 0.014963155 -0.0068545933 -0.030032014 -0.020128783 -0.020888325
-0.01006871 0.035680015 -0.017724203 -0.0429317 -0.02328968 -0.03001362 -0.007882377 0.031150153
-0.018654486 -0.020300869 0.009634126 -0.019427849 0.0134228 -0.0136508355 -0.0032265147 0.019406665
-0.015487779 -0.02249637 0.02363605 0.0011767932 0.023434771 -0.041181386 0.010541234 -0.019999387
00000000: ed01 fdbc 0543 62bc 73a3 ba3c acc4 073d
00000010: ae8a e13c 4903 d3bc 4638 bebb 9960 12bc
00000020: 14b8 1cbc 9dd9 6b3c 07d7 a73b 310f 1abc
00000030: 7770 033c 7e2d 38bc 8ec6 15bc c129 cebc
00000040: 7131 053c c0a3 25bd e757 cc3a 3764 153d
00000050: e4da c73b 4bf6 203d 29ac fd3c 470f ae3b
00000060: 0760 323d b8df 1cbc 083b 8b3c a923 d7bc
00000070: b24d de3c adb2 593c 4e9c aa3c 3b54 ee3c
00000080: e6d6 ddbc 2d06 003d dbc3 f4bc 0528 753c
00000090: 7f9c e0bb b305 f6bc 1ee5 a4bc fe1d abbc
000000a0: 3bf7 24bc 3525 123d 5932 91bc 26d9 2fbd
000000b0: 00ca bebc 20df f5bc 1625 01bc 9b2e ff3c
000000c0: 4bd1 98bc 024e a6bc 74d8 1d3c 2727 9fbc
000000d0: 4eeb 5b3c c1a7 5fbc ef73 53bb bafa 9e3c
000000e0: 74c0 7dbc 4f4a b8bc 64a0 c13c a13e 9a3a
000000f0: 47fa bf3c d0ad 28bd 24b5 2c3c c1d5 a3bc

weight f4 [64, 1024]
0.027675867 -0.008910111 0.032339577 0.024412509 -0.009846141 0.016492933 0.020141395 0.024561161
-0.008009462 0.024103804 -0.02231802 0.020164778 -0.006702538 -0.028840486 -0.020836439 -0.011318156
0.011099049 -0.0105931265 -0.0014589516 0.023621855 -0.02261397 -0.005847831 0.025374314 0.00509508
-0.01898134 0.006809073 -0.0204331 0.0057620048 -0.0156209925 0.03228629 -0.016427936 0.015340378
0.024559334 -0.0020713776 -0.022191703 -7.3180185e-05 -0.020187361 0.009370552 -0.014633497 -0.0119294785
0.020898065 0.023987861 -0.028990678 0.020657398 -0.029056605 0.01760545 0.03080335 -0.02803017
-0.02223355 0.016837565 -0.00781408 -0.026211172 0.003727612 0.034512706 0.010893102 0.029823778
-0.021508517 0.026639476 0.02860947 0.02640213 -0.010309299 0.01084789 -0.019642131 0.018252391
0.023319373 0.010672882 0.029356048 -0.028079467 0.023415076 -0.0035661778 0.006060828 -0.029749261
-0.022141876 0.0030135114 -0.013962071 0.026215926 0.017865054 0.0030264757 -0.02513442 0.008477604
-0.028857496 0.010065763 -0.008851409 0.01085356 0.021623716 -0.014155497 -0.025572572 -0.02154303
0.02994716 -0.00033123128 0.0048598447 -0.020361174 0.0050207255 0.018120687 0.028063025 0.008292646
0.011296911 0.0027420032 -0.0082464935 0.00088255724 0.027049063 0.013867025 0.020592816 0.012151158
-0.028996194 0.035005797 0.0124888625 0.022063002 -0.011486464 0.0087172 0.022443786 -0.009683068
0.018461114 -0.020913808 0.03082561 0.007963437 -0.008356353 -0.020660995 -0.02084953 0.019520074
-0.01368422 -0.0076524466 0.031599946 -0.030784948 0.0050444645 0.014076478 -0.0077155028 0.029372064
0.011043049 -0.00060131575 0.013335288 -0.016640874 -0.016858263 0.015277313 -0.011680046 -0.026881743
0.0067262286 -0.003254501 -0.020753881 0.031751968 -0.019666137 0.024711085 0.008923304 0.0108754225
0.0041794325 0.033387877 0.020071637 -0.0031424863 -0.018613746 0.025486764 0.037575092 0.002910698
-0.008123445 0.019977964 0.03867305 0.033152707 0.0022582696 -0.005832541 0.021164821 -0.0005883318
-0.027252419 0.016706329 -0.020245623 0.023629162 -0.023750976 -0.027292132 0.013578499 -0.0060134637
-0.0030709205 -0.020509595 -0.004367726 -0.01746427 -0.02499665 0.020540576 0.024407974 0.023127496
-0.00062080304 -2.0754153e-05 -0.018825425 0.0060030767 0.016895955 0.00246777 -0.004963739 -0.021203455
-0.0066951322 -0.022599798 0.009786947 -0.031734265 -0.02720363 0.022519467 0.0011073197 0.0048102797
0.010971223 -0.002142729 0.022847358 -0.024656566 -0.0074158143 0.019335726 0.015065622 0.014753937
-0.0033068045 -0.016343407 0.014847767 0.0017189351 0.014376381 0.021353383 0.029721227 -0.0037693859
0.01925939 0.011960892 0.018342888 -0.008721926 -0.0039789784 0.030858358 0.031422764 -0.0009454833
0.011343796 0.014114312 0.018580498 0.024620704 0.006659283 0.013159245 -0.021727309 0.0053089326
-0.012051574 0.010747227 0.0030310384 -0.021842195 -0.017632283 -0.0022098657 -0.024100935 0.014102851
-0.01197057 0.02638101 -0.025313478 0.00075115653 0.001830512 -0.009557659 0.012241683 -0.0041301134
-0.027607867 -0.016625384 -0.018460551 0.011609532 -0.023900665 0.010106513 -0.002531103 0.011121567
0.000897127 -0.012079571 0.029492375 -0.01916052 -0.006877803 0.014263072 -0.026235204 -0.033473004
00000000: 80b8 e23c b7fb 11bc 8176 043d befc c73c
00000010: b551 21bc 301c 873c 91ff a43c 7d34 c93c
00000020: 1e3a 03bc 5775 c53c 48d4 b6bc 9b30 a53c
00000030: f7a0 dbbb e242 ecbc 2eb1 aabc c96f 39bc
00000040: c9d8 353c cb8e 2dbc 4b3a bfba 9f82 c13c
00000050: ef40 b9bc 299f bfbb cbdd cf3c a1f4 a63b
00000060: c17e 9bbc a51e df3b 5163 a7bc 33cf bc3b
00000070: 31ef 7fbc a13e 043d e193 86bc 3556 7b3c
00000080: a830 c93c f3bf 07bb 60cb b5bc 5078 99b8
00000090: f75f a5bc f286 193c 56c1 6fbc dc73 43bc
000000a0: 6b32 ab3c 3182 c43c dc7d edbc b439 a93c
000000b0: 1e08 eebc 4e39 903c 4f57 fc3c 879f e5bc
000000c0: 2223 b6bc efee 893c a106 00bc d0b8 d6bc
000000d0: f44a 743b 325d 0d3d fb78 323c ff50 f43c
000000e0: a132 b0bc 083b da3c 685e ea3c 4849 d83c
000000f0: 56e8 28bc 59bb 313c 89e8 a0bc 0a86 953c
00000100: 4508 bf3c 50dd 2e3c 187c f03c e906 e6bc
00000110: f9d0 bf3c 89b6 69bb e999 c63b b9b4 f3bc
00000120: e162 b5bc 557e 453b 2cc1 64bc c8c2 d63c
00000130: bc59 923c d657 463b b3e6 cdbc a6e5 0a3c
00000140: 8e66 ecbc dfea 243c 8005 11bc 21d3 313c
00000150: 3824 b13c 75ec 67bc 927d d1bc 027b b0bc
00000160: bf53 f53c 1ca9 adb9 553f 9f3b 7acc a6bc
00000170: e684 a43b d671 943c 6ee4 e53c e1dd 073c
00000180: ae16 393c 2eb3 333b 4d1c 07bc 6a5b 673a
00000190: ff95 dd3c 8532 633c 44b2 a83c a715 473c
000001a0: 6d89 edbc 3d62 0f3d 169e 4c3c 78bd b43c
000001b0: b931 3cbc 96d2 0e3c 08dc b73c bba5 1ebc
000001c0: c33b 973c 6f53 abbc fd85 fc3c 1379 023c
000001d0: 16e9 08bc 3f41 a9bc a2cc aabc 90e8 9f3c
000001e0: c733 60bc 60c1 fabb f26e 013d b730 fcbc
000001f0: 094c a53b 07a1 663c 54d2 fcbb af9d f03c
00000200: e8ed 343c 9ea1 1dba 407c 5a3c 7152 88bc
00000210: 571a 8abc b24d 7a3c aa5d 3fbc 1a37 dcbc
00000220: b267 dc3b 7749 55bb 0b04 aabc 5a0e 023d
00000230: e11a a1bc e76e ca3c 0d33 123c d42e 323c
00000240: 9ff3 883b bac1 083d 466d a43c 2cf2 4dbb
00000250: db7b 98bc 9ec9 d03c 57e8 193d 69c1 3e3b
00000260: 3318 05bc d4a8 a33c a267 1e3d 22cb 073d
00000270: 7aff 133b e61e bfbb d961 ad3c 473a 1aba
00000280: 7740 dfbc b6db 883c 26da a5bc f291 c13c
00000290: 6891 c2bc c093 dfbc 5a78 5e3c 970c c5bb
000002a0: 7f41 49bb bd03 a8bc 241f 8fbb 3b11 8fbc
000002b0: c6c5 ccbc b644 a83c 3bf3 c73c e075 bd3c
000002c0: 63bd 22ba 3419 aeb7 c737 9abc 75b5 c43b
000002d0: 6369 8a3c 4fba 213b dca6 a2bb deb2 adbc
000002e0: d762 dbbb 3623 b9bc 6e59 203c cafb 01bd
000002f0: 26da debc bf7a b83c 7c23 913a 8d9f 9d3b
00000300: a5c0 333c 076d 0cbb 622a bb3c 91fc c9bc
00000310: 5c00 f3bb f565 9e3c ccd5 763c 7fba 713c
00000320: f9b6 58bb 9ce2 85bc 0c44 733c e44d e13a
00000330: ea8a 6b3c 4aed ae3c ee79 f33c cd07 77bb
00000340: dec5 9d3c 9ef7 433c d343 963c 69e6 0ebc
00000350: 1762 82bb abca fc3c 28b5 003d 4fda 77ba
00000360: 54db 393c b73f 673c 2136 983c 5cb1 c93c
00000370: 1d36 da3b e099 573c 78fd b1bc 8ef6 ad3b
00000380: f773 45bc 2315 303c 63a4 463b 67ee b2bc
00000390: 9471 90bc 65d3 10bb 536f c5bc a50f 673c
000003a0: 3620 44bc fd1c d83c 365e cfbc 43e9 443a
000003b0: caed ef3a ba97 1cbc 5791 483c e755 87bb
000003c0: e529 e2bc f531 88bc 953a 97bc e835 3e3c
000003d0: 54cb c3bc ca95 253c dde0 25bb 3c37 363c
000003e0: 2d2d 6b3a 65e9 45bc fe99 f13c 86f6 9cbc
000003f0: 315f e1bb a9af 693c 36eb d6bc fd1a 09bd

bias f4 [64]
-0.008158409 -0.011191082 0.0015686726 -0.014113175 -0.00720636 0.0037249932 -0.023602232 -0.030852158
-0.019208314 -0.017249178 -0.010142364 0.0017605453 0.035621952 0.0007669426 0.003115177 -0.027419759
-0.0004319786 -0.020728374 -0.00817239 -0.015334414 0.0047637117 -0.010424384 -0.015140896 0.007825985
0.011949286 0.011119425 -0.011112764 0.022102784 -0.005807523 0.007972784 -0.03257176 -0.013913724
0.027361406 0.0043508974 0.007858483 -0.013503017 0.011040249 -0.024837231 -0.019547272 -0.024486212
0.0020173346 -0.001632034 -0.012329482 -0.004372098 -0.022998415 -0.0066188644 0.04299452 -0.006934682
0.021043062 0.034430917 -0.0046639103 -0.0018703786 0.00016473746 0.011275247 -0.01638324 -0.028186426
0.004626308 0.00069933425 -0.020193225 0.031565376 0.024911074 0.0104493005 0.016384743 0.004948662
00000000: d9aa 05bc cd5a 37bc eb9b cd3a f23a 67bc
00000010: 5423 ecbb 041f 743b 7859 c1bc aabd fcbc
00000020: c15a 9dbc 264e 8dbc 282c 26bc 19c2 e63a
00000030: 53e8 113d a60c 493a ff27 4c3b 679f e0bc
00000040: 307b e2b9 8dce a9bc 7de5 05bc 323d 7bbc
00000050: e918 9c3b 09cb 2abc 8511 78bc 8f38 003c
00000060: f0c6 433c 402e 363c 4f12 36bc e610 b53c
00000070: 094d bebb 48a0 023c f769 05bd 63f6 63bc
00000080: 0725 e03c f991 8e3b dec0 003c c23b 5dbc
00000090: 29e2 343c 7377 cbbc 9a21 a0bc 4f97 c8bc
000000a0: 4235 043b f9e9 d5ba 9801 4abc d143 8fbb
000000b0: 2c67 bcbc 0fe3 d8bb 061b 303d 543c e3bb
000000c0: 8062 ac3c 6f07 0d3d b7d3 98bb 7e27 f5ba
000000d0: 60bd 2c39 d0bb 383c 2536 86bc 38e7 e6bc
000000e0: 4998 973b 8753 373a 436c a5bc b24a 013d
000000f0: 4f12 cc3c 8b33 2b3c 4c39 863c 6328 a23b

weight f4 [10, 64]
-0.08618942 -0.10732173 -0.12558167 -0.061830625 -0.027577491 -0.016746564 -0.10835935 0.08323517
-0.13759254 0.063106276 -0.027750073 -0.022807445 -0.061629303 0.06716454 -0.012158891 0.06385107
0.080099955 0.034000617 -0.0775668 -0.04127176 0.05781041 -0.06572716 -0.09354664 -0.059275568
0.08141907 0.0641031 -0.11681666 -0.023382168 -0.100416794 -0.076624505 0.11638973 0.00019688369
-0.10736191 -0.10864361 0.06370146 -0.02034946 0.1037737 0.08257785 -0.10564358 0.0425986
-0.0033740525 -0.049701296 0.111983664 0.08075658 0.13872395 -0.04406304 -0.07800465 0.01525065
0.08128775 -0.049238775 0.06539384 -0.04541356 -0.013328772 0.11089871 -0.0020733927 0.06018083
-0.049026977 0.09763447 0.03704513 -0.078733355 0.08258835 0.09383345 -0.045612454 -0.100905225
0.024244193 0.11547273 0.021460313 -0.06464365 0.12210355 -0.07168395 -0.084858276 -0.04604671
-0.031782284 -0.10583838 -0.13390343 0.09976937 -0.07394286 0.07453148 -0.11268721 -0.062514275
-0.13153026 0.07275732 -0.022989603 -0.03385196 0.13105603 0.012792173 -0.0064720483 0.014385308
-0.047124583 0.031924244 0.09655651 0.010080324 -0.01622688 0.12173616 -0.039422866 -0.028179087
-0.07099007 0.1360762 -0.043421958 -0.078288235 -0.026428428 -0.047758587 -0.0560368 0.060191117
-0.08927691 0.027449958 0.010960911 0.105315 0.094577394 0.12148493 0.11302296 -0.017975919
-0.018393522 -0.011793621 0.116892524 -0.09546103 -0.07825332 -0.047993343 0.072914205 -0.12364286
0.035968695 -0.056930978 0.1409254 -0.08624014 -0.07096951 -0.09640089 -0.075646564 0.12217358
-0.120970786 -0.12707423 -0.08910421 0.093416385 0.12929003 -0.007302825 -0.0033004105 -0.11490017
0.12331951 0.06328008 0.002651802 -0.04932828 0.0836393 0.007592487 -0.12170546 0.05302357
-0.02266449 0.07974313 0.007574454 -0.07329495 0.0012334512 -0.11867147 0.07845988 -0.009514692
0.043787643 -0.028080773 0.1322099 0.07004484 -0.10867805 -0.011042605 -0.07854592 0.011430253
-0.054877054 -0.11689556 -0.06550065 -0.1143675 0.057285156 0.09678983 -0.06848295 0.021620044
0.032720245 0.08355563 -0.032015856 0.024396082 -0.09109291 0.016967481 0.1132812 -0.115266
0.05466338 0.0900459 0.027308878 0.12708205 0.0385084 -0.0070292125 -0.07255079 0.028221944
-0.09869283 -0.060635123 -0.059364874 -0.027096923 -0.016884716 0.038412597 -0.10631899 -0.005356094
0.016398203 -0.024580704 0.11981658 -0.0951282 0.082744576 -0.08944503 0.027278267 -0.031840634
-0.10061125 0.09644193 -0.06670833 -0.10625041 -0.0142849805 0.09735283 0.088700324 -0.01334035
0.03773209 0.034019195 0.06400172 -0.073334605 -0.07408206 0.13237864 0.011308782 -0.116606385
0.062164932 -0.09908875 0.033546437 0.05115307 0.101208456 -0.059960842 0.10539472 -0.04142688
0.06701267 0.05483549 -0.10808391 -0.03065602 -0.064089924 0.079714045 0.00656267 -0.0057268604
0.12377696 0.042903394 -0.0770049 0.039694857 -0.10072485 -0.060216818 0.073422395 -0.024853949
0.049987208 0.111109264 -0.08430253 -0.04935344 0.02507033 -0.019149156 -0.02517973 0.088896446
0.03939224 -0.08483932 -0.0019012226 -0.043072928 0.07949774 -0.046058115 -0.0026729535 -0.09378076
00000000: 1484 b0bd 7fcb dbbd 7b98 00be 1c42 7dbd
00000010: 31ea e1bc 1730 89bc 82eb ddbd 3377 aa3d
00000020: 0fe5 0cbe dd3d 813d 1f54 e3bc aed6 babc
00000030: 026f 7cbd 908d 893d 1636 47bc 5ac4 823d
00000040: 720b a43d 3b44 0b3d 58db 9ebd 940c 29bd
00000050: 9cca 6c3d f69b 86bd 6195 bfbd f0ca 72bd
00000060: 0bbf a63d 7c48 833d 933d efbd f68b bfbc
00000070: 52a7 cdbd 4fed 9cbd bd5d ee3d 9072 4e39
00000080: 90e0 dbbd 8a80 debd e975 823d e9b3 a6bc
00000090: 4e87 d43d 931e a93d a95b d8bd df7b 2e3d
000000a0: 351f 5dbb 9693 4bbd b157 e53d b563 a53d
000000b0: a70d 0e3e 727b 34bd e7c0 9fbd dddd 793c
000000c0: 317a a63d 99ae 49bd 35ed 853d 9203 3abd
000000d0: ec60 5abc dd1e e33d c2e1 07bb 2d80 763d
000000e0: 83d0 48bd 95f4 c73d a2bc 173d f43e a1bd
000000f0: 1524 a93d c02b c03d 20d4 3abd 66a7 cebd
00000100: c29b c63c f77c ec3d 8acd af3c e463 84bd
00000110: 6d11 fa3d 09cf 92bd 2dca adbd 7a9b 3cbd
00000120: 242e 02bd cbc1 d8bd fb1d 09be e253 cc3d
00000130: 5b6f 97bd f6a3 983d 8dc8 e6bd 7c07 80bd
00000140: deaf 06be ca01 953d b154 bcbc 5aa8 0abd
00000150: 8d33 063e 4396 513c 7a13 d4bb 5bb0 6b3c
00000160: b505 41bd ffc2 023d 6bbf c53d f127 253c
00000170: 3cee 84bc cf50 f93d df79 21bd d4d7 e6bc
00000180: 3e63 91bd 8f57 0b3e 39db 31bd 9555 a0bd
00000190: 6e80 d8bc 829e 43bd d886 65bd f68a 763d
000001a0: d0d6 b6bd bcde e03c 6595 333c 64af d73d
000001b0: cbb1 c13d 17cd f83d 9578 e73d 3c42 93bc
000001c0: 03ae 96bc 083a 41bc 5965 ef3d 1381 c3bd
000001d0: 4743 a0bd ab94 44bd 0b54 953d 7838 fdbd
000001e0: e953 133d 7530 69bd c04e 103e ac9e b0bd
000001f0: 7658 91bd d46d c5bd 96ec 9abd 2436 fa3d
00000200: 88bf f7bd bf1f 02be 457c b6bd 1751 bf3d
00000210: 9b64 043e 894c efbb b34b 58bb c850 ebbd
00000220: f08e fc3d fd98 813d dbc9 2d3b 730c 4abd
00000230: 154b ab3d 66ca f83b b640 f9bd 3e2f 593d
00000240: e1aa b9bc 5e50 a33d 2033 f83b aa1b 96bd
00000250: c1ab a13a 070a f3bd 93af a03d 83e3 1bbc
00000260: ac5a 333d a609 e6bc 0862 073e ab73 8f3d
00000270: 9992 debd 0bec 34bc afdc a0bd f545 3b3c
00000280: c3c6 60bd f066 efbd 3425 86bd 8239 eabd
00000290: d7a3 6a3d bf39 c63d ca40 8cbd 851c b13c
000002a0: aa05 063d 371f ab3d 0f23 03bd 4bda c73c
000002b0: eb8e babd 63ff 8a3c f9ff e73d 9510 ecbd
000002c0: b5e6 5f3d fc69 b83d deb6 df3c cc21 023e
000002d0: fcba 1d3d 4f55 e6bb 8295 94bd b531 e73c
000002e0: 771f cabd 895c 78bd 9528 73bd 5efa ddbc
000002f0: d151 8abc 8756 1d3d c5bd d9bd 2c82 afbb
00000300: 8655 863c 795d c9bc 6562 f53d 93d2 c2bd
00000310: fd75 a93d f52e b7bd ac76 df3c 536b 02bd
00000320: 450d cebd 5983 c53d 609e 88bd d199 d9bd
00000330: 8d0b 6abc ec60 c73d 84a8 b53d 7c91 5abc
00000340: f78c 1a3d b657 0b3d 5513 833d 7430 96bd
00000350: 56b8 97bd 448e 073e 7848 393c 54cf eebd
00000360: a8a0 7e3d 0bef cabd fd67 093d e285 513d
00000370: 6146 cf3d 8099 75bd 30d9 d73d 3baf 29bd
00000380: f03d 893d 2e9b 603d 195b ddbd 5522 fbbc
00000390: 9441 83bd 1e41 a33d ab0b d73b 63a8 bbbb
000003a0: c67e fd3d 78bb 2f3d bfb4 9dbd 1397 223d
000003b0: d548 cebd e9a5 76bd 7b5e 963d 829a cbbc
000003c0: 63bf 4c3d 418d e33d cea6 acbd d526 4abd
000003d0: 4b60 cd3c b1de 9cbc b945 cebc 570f b63d
000003e0: c259 213d 3dc0 adbd 7232 f9ba 3d6d 30bd
000003f0: b6cf a23d 6fa7 3cbd b82c 2fbb 2110 c0bd

bias f4 [10]
-0.0061288835 0.082951345 -0.03407436 -0.0006032521 0.062735885 0.008397933 -0.06112968 0.12442905
-0.15193412 0.027172092
00000000: cdd4 c8bb 65e2 a93d 8e91 0bbd 9023 1eba
00000010: ac7b 803d 7c97 093c 1e63 7abd a8d4 fe3d
00000020: 9e94 1bbe 0298 de3c
